assets/model/logistic_regression_modeltake2.tflite (tflite, 1400 bytes, 1 tensors)

sequential_1/dense_1/MatMul f4 [30, 1]
00000000: 3bf2 83bd fbb7 203f 9407 74bd 52c7 c2bc
00000010: d92b 92be c980 1fbf a233 293f 2350 623f
00000020: 8a1d abbd c5a0 10bd e725 113f 6cd2 07be
00000030: 1d78 b93c 04f2 3f3f 210f c43e 3af1 3ebf
00000040: 0812 91be 136a 953e 6447 87be e5fb 0ebf
00000050: 722f 453f 567b 803f c65d 193f efac 503f
00000060: ea27 193f bb0b 0d3e 0fa2 2f3f 8247 793f
00000070: 4571 4b3f 29fd 2d3f
-0.06442686 0.6278073 -0.05957754 -0.023776684 -0.28549078 -0.62305886 0.6609441 0.8840353
-0.083552435 -0.03530957 0.5669846 -0.13263863 0.022640282 0.7497866 0.38292792 -0.7458683
-0.2833407 0.2918249 -0.26421654 -0.5585311 0.7702552 1.0037639 0.5990871 0.81513876
0.5982653 0.13774006 0.68606657 0.9737474 0.7946971 0.67964417
