assets/model/logistic_regression_model.tflite (tflite, 1080 bytes, 1 tensors)

sequential_1/dense_1/MatMul f4 [1, 21]
00000000: 4813 743e fe60 bb3e e60e b1be 9b51 05bf
00000010: b81f 29bd 28f0 3d3e 7023 223d 003f 913c
00000020: 0bf0 e5be 401a 203e f0c3 ad3d 2ac0 fdbe
00000030: c394 8fbe ac1d 5a3e b409 b8be 1841 87bd
00000040: 3877 f4bd 005b 0dbb 80c0 e5bc b0d1 9fbd
00000050: e01a d2bc
0.2383548 0.36597437 -0.3458168 -0.52077645 -0.041290015 0.18548644 0.039584577 0.017730236
-0.449097 0.15635014 0.08484638 -0.49560672 -0.28043184 0.21300381 -0.35944903 -0.066042125
-0.11936802 -0.0021569133 -0.028045893 -0.078036666 -0.02564758
